model/model.pth (torch, 16787 bytes, 4 tensors)

linear1.weight f4 [256, 11]
-0.06746805 0.58493197 0.14900228 0.03634857 0.056916982 -0.19128793 -0.26219785 -0.2113775
0.032767553 0.009626449 0.05655272 -0.4718323 -0.07788037 0.108252995 0.08453557 0.1874845
-0.11859328 0.17990306 0.2970664 0.2546689 -0.28780568 0.08453798 -0.23845924 -0.39284804
-0.17441617 -0.07780246 -0.31240746 0.060452454 -0.19998728 -0.3617181 -0.1128954 -0.09075478
-0.16595718 0.2751526 -0.45633027 0.2893327 0.04317431 0.17211083 0.19109005 0.18505618
0.04786306 -0.049225785 0.023777269 0.093587995 0.5090036 -0.35385463 -0.1056608 0.11403277
0.030551452 -0.31173825 -0.0077125346 0.0120837 0.0628241 0.108058676 0.09794914 0.0028889
0.28403077 -0.3634005 0.06605809 0.06264359 -0.054289058 0.20240942 0.12343646 -0.18751423
-0.029974563 -0.31587863 -0.18481535 -0.06618521 0.049965195 0.07570247 -0.12263656 0.12582038
-0.32292804 -0.27816886 -0.3729527 0.12513831 -0.26507574 -0.3661894 0.37202618 0.1587429
-0.2384998 0.13655469 -0.2710415 0.023641212 -0.0545679 0.2619072 -0.1498935 0.23631585
-0.12431115 0.36700112 0.13692996 0.2302532 -0.23502928 0.028511701 -0.22228377 -0.07692168
-0.35390982 -0.21570097 -0.046034276 0.35405067 0.059903875 -0.3009441 -0.29520488 0.07586389
0.041388635 -0.21603976 -0.309038 0.23583975 0.16170448 -0.18171814 0.09418154 -0.13440111
0.06396832 0.030193985 -0.045190632 -0.04502898 -0.272635 -0.36135 -0.50606227 -0.08564518
0.15306649 -0.4834339 -0.21820042 0.091599524 -0.38450572 -0.0007939749 -0.11621568 -0.08794147
-0.04241591 0.0021973273 0.022092212 0.16755913 0.21264677 0.3396143 0.24315788 -0.28026125
-0.23326994 -0.013264049 0.06121464 0.06328553 0.2021628 0.11358147 -0.04982771 0.6224312
-0.11813028 -0.4588609 -0.196143 -0.17879044 0.06512843 -0.19498318 -0.11571921 -0.120896846
-0.08451993 0.1697758 -0.22136344 -0.27705958 -0.12994027 -0.26367638 0.023550425 -0.2682506
-0.12240477 -0.22725955 -0.07485096 0.06279362 0.12064 -0.5308496 0.45748267 -0.45625827
-0.08799442 0.16575758 -0.048826016 -0.0020781874 0.06228109 0.1572818 0.065689646 -0.06848147
-0.15026169 -0.534679 -0.09171855 -0.10961231 -0.18268104 0.10317259 0.0030637211 -0.06382756
0.09919195 -0.023687081 0.08243857 0.55727553 0.25527415 0.53521705 -0.001291055 -0.15290721
-0.22582409 -0.18721868 0.34498796 -0.043739904 0.3012212 0.1435397 0.5423222 -0.6729727
0.4099354 -0.08737587 -0.17751066 0.00033037044 -0.06558431 0.21282722 0.1085945 0.22128747
0.04906105 -0.30193862 -0.36880577 0.15934047 0.04410212 0.026524676 0.021438597 0.054229606
-0.23308414 -0.10707368 0.009429376 -0.0040447973 -0.33209574 0.56324506 0.29200053 -0.039766453
-0.21784383 0.1398256 -0.0015586308 -0.04136362 -0.1944784 0.01266069 -0.1725925 -0.16598538
-0.39690298 -0.5475301 -0.0026464711 0.22743425 0.049288437 0.2971931 -0.30874473 -0.24356367
-0.18588924 -0.30080056 -0.24706326 -0.48786622 0.30695808 0.3100736 0.2573891 -0.10308227
0.10220159 0.03073369 0.096813366 -0.029990345 -0.17599146 0.21346647 0.31247056 0.26196674
00000000: b02c 8abd 1abe 153f 0e94 183e 3de2 143d
00000010: c821 693d fce0 43be cc3e 86be 5873 58be
00000020: 4537 063d 41b8 1d3c d3a3 673d 0194 f1be
00000030: be7f 9fbd bfb3 dd3d fc20 ad3d f0fb 3f3e
00000040: 09e1 f2bd 8238 383e 1619 983e f663 823e
00000050: 445b 93be 4022 ad3d a92e 74be 6123 c9be
00000060: 279a 32be e556 9fbd dff3 9fbe fe9c 773d
00000070: 77c9 4cbe 1d33 b9be b435 e7bd a4dd b9bd
00000080: aef0 29be cde0 8c3e 1fa4 e9be 6a23 943e
00000090: 8cd7 303d d23d 303e 1cad 433e 5e7f 3d3e
000000a0: 0e0c 443d faa0 49bd 8cc8 c23c 10ab bf3d
000000b0: 0f4e 023f 6f2c b5be b164 d8bd 038a e93d
000000c0: 0a47 fa3c 289c 9fbe 6eb9 fcbb b6fa 453c
000000d0: eca9 803d de4d dd3d 8f99 c83d b353 3d3b
000000e0: 7b6c 913e a10f babe 7749 873d 484b 803d
000000f0: 345e 5ebd 6a44 4f3e 41cc fc3d bb03 40be
00000100: 378d f5bc d8ba a1be 3c40 3dbe 1d8c 87bd
00000110: 4ea8 4c3d e609 9b3d e028 fbbd 0fd7 003e
00000120: d356 a5be 266c 8ebe a8f3 bebe 4224 003e
00000130: 02b8 87be 2d7d bbbe 377a be3e 808d 223e
00000140: 4b39 74be fed4 0b3e f4c5 8abe 37ab c13c
00000150: 9782 5fbd b318 863e af7d 19be c8fc 713e
00000160: d896 febd 92e7 bb3e 5e37 0c3e 7fc7 6b3e
00000170: 84ab 70be 5f91 e93c 5b9e 63be 1d89 9dbd
00000180: ab33 b5be b7e0 5cbe 708e 3cbd 2146 b53e
00000190: c45d 753d 5815 9abe 1825 97be 875e 9b3d
000001a0: 2187 293d 8739 5dbe 3b3a 9ebe fa7f 713e
000001b0: dc95 253e 5214 3abe 40e2 c03d 72a0 09be
000001c0: d301 833d 6059 f73c d019 39bd 4f70 38bd
000001d0: d196 8bbe de02 b9be 4c8d 01bf bd66 afbd
000001e0: 76bd 1c3e a684 f7be ee6f 5fbe 8898 bb3d
000001f0: efdd c4be c122 50ba 7d02 eebd a81a b4bd
00000200: 4ebc 2dbd 0901 103b bafa b43c 9f94 2b3e
00000210: 13c0 593e ede1 ad3e 61fe 783e 677e 8fbe
00000220: 51de 6ebe 7451 59bc 34bc 7a3d d89b 813d
00000230: c403 4f3e 679d e83d 2418 4cbd a757 1f3f
00000240: 4aee f1bd d1ef eabe b6d9 48be d714 37be
00000250: 0e62 853d aca9 47be 31fe ecbd c498 f7bd
00000260: c918 adbd b5d9 2d3e 19ad 62be c1da 8dbe
00000270: 100f 05be 9700 87be d2ec c03c 2558 89be
00000280: 5aaf fabd bab6 68be 764b 99bd f199 803d
00000290: 1b12 f73d c2e5 07bf 2b3b ea3e af9a e9be
000002a0: 6b36 b4bd 5bbc 293e cafd 47bd 3332 08bb
000002b0: 751a 7f3d 7b0e 213e 4b88 863d 0340 8cbd
000002c0: 33de 19be b9e0 08bf efd6 bbbd 6b7c e0bd
000002d0: bd10 3bbe 274c d33d b6c8 483b 06b8 82bd
000002e0: 2625 cb3d 690b c2bc 8ed5 a83d 9ca9 0e3f
000002f0: 4bb3 823e fc03 093f 9e38 a9ba b593 1cbe
00000300: 6e3e 67be 41b6 3fbe 43a2 b03e 9d28 33bd
00000310: aa39 9a3e 12fc 123e a1d5 0a3f f047 2cbf
00000320: 0ee3 d13e 1ff2 b2bd 5bc5 35be 9235 ad39
00000330: 1151 86bd 61ef 593e cb66 de3d 2f99 623e
00000340: 3df4 483d b397 9abe 1cd4 bcbe 262a 233e
00000350: 6da4 343d 474a d93c ff9f af3c dd1f 5e3d
00000360: 9cad 6ebe 7249 dbbd ab7d 1a3c 388a 84bb
00000370: 7408 aabe d430 103f 1881 953e 26e2 22bd
00000380: 7412 5fbe 712e 0f3e f94a ccba e66c 29bd
00000390: 5825 47be c86e 4f3c 17bc 30be 12f8 29be
000003a0: de36 cbbe ef2a 0cbf 6b70 2dbb 86e4 683e
000003b0: ace2 493d b229 983e ca13 9ebe c168 79be
000003c0: c059 3ebe 8802 9abe 27fe 7cbe 9ac9 f9be
000003d0: 9c29 9d3e f8c1 9e3e 81c8 833e cc1c d3bd
000003e0: 114f d13d 38c5 fb3c 1646 c63d 50ae f5bc
000003f0: 1b37 34be f496 5a3e 24fc 9f3e 8120 863e

linear1.bias f4 [256]
-0.07820726 0.06290354 0.27092406 -0.2753444 -0.031222178 -0.38974056 -0.31705317 -0.17322162
-0.24771363 -0.31158933 0.13765785 -0.15010802 0.011801074 -0.0870072 -0.14716135 0.19354111
0.07017557 0.2315754 0.1733057 -0.12243427 -0.18816735 0.18734169 -0.17203768 -0.0858612
-0.08120154 -0.06846088 -0.17537777 -0.208538 -0.00060914294 -0.3442048 0.21664299 -0.061076224
-0.19868943 0.07998541 0.066119425 0.06446278 -0.24461798 0.107658185 -0.13680615 -0.45160255
-0.046592712 0.14754197 -0.050343204 -0.108364955 0.10991583 0.3649651 -0.3649715 -0.07235357
-0.064599685 -0.23435903 -0.3926254 -0.075912185 -0.20425664 0.022677032 0.017650178 0.095311604
-0.13929895 -0.12298588 -0.07914152 0.09057894 0.05896133 0.15363163 -0.2747592 -0.23225018
-0.20535077 0.27429914 0.18100885 -0.11441546 -0.13677713 0.12987027 -0.2917896 0.10118557
-0.1788533 0.0022882037 -0.124574706 -0.0066746897 -0.25454587 -0.017222846 0.0768526 -0.07859933
0.18422784 -0.18190745 -0.37494686 0.07134276 0.13246347 -0.10383838 -0.18889467 0.27666715
-0.041265327 -0.15033084 -0.18131386 0.05879077 -0.056512922 -0.19740002 -0.07374238 -0.030323047
-0.1277735 0.19896135 -0.02057577 -0.3007724 -0.496837 -0.056942407 0.07867842 0.047676574
-0.16514239 0.068977654 -0.0426391 0.10515679 -0.31241632 -0.01131901 0.24254327 -0.17939863
-0.055746242 -0.047833666 -0.019742213 -0.02787421 -0.098997034 -0.12216672 0.011811027 -0.2760581
0.16713032 -0.42333248 0.27106515 -0.007218073 0.11259231 -0.100292735 -0.28566033 0.056587774
-0.3553666 0.16322218 0.32799646 0.19791651 0.2565101 -0.25372255 0.14167628 -0.046400134
0.21983522 -0.21188536 0.0020399953 0.065541096 0.12384782 0.004409003 -0.28795454 -0.16284612
0.0076423986 -0.16419062 -0.016088916 -0.017854046 -0.11544496 -0.21776673 0.0037353323 -0.105214596
0.0037639309 -0.13748612 -0.10557156 -0.13539039 0.029294355 -0.14023177 0.12628673 -0.22004806
0.30405167 0.23907031 -0.037124537 0.08545697 0.07271373 -0.23849346 0.12540483 0.09845601
-0.15594567 0.09872568 -0.24085638 -0.007032691 0.07908884 -0.14617026 -0.29121193 0.044346347
-0.23419948 -0.04499151 0.009321289 -0.13691594 0.23911771 0.20226325 0.12976173 -0.10039913
0.08026002 0.18614158 -0.26631212 -0.006212067 -0.09965874 -0.19278999 -0.08160022 0.062171634
0.23892838 0.0527681 -0.2591194 -0.12526244 -0.23239183 -0.12899059 -0.22842371 -0.020146605
0.1286683 -0.015778638 -0.23172702 0.097353846 0.18091035 -0.037761852 -0.22741213 -0.040846832
-0.0036115907 -0.088645004 0.13641872 -0.40730008 -0.23542416 -0.3208258 0.16723141 -0.07765677
0.2826188 -0.23411965 0.061619975 0.0075112754 0.07393052 -0.21206169 0.24333437 -0.1789131
-0.17289583 0.023604682 0.0035872431 0.012763655 0.341852 -0.24248523 0.20375033 0.08216519
-0.09440366 -0.22724812 -0.23293258 -0.20440319 -0.057560515 -0.074260436 -0.060000315 -0.002641645
-0.039471712 -0.13776377 0.050875694 0.1690654 -0.36434668 -0.10315222 -0.23728086 -0.3669682
-0.07377241 0.15366267 0.020644875 -0.043425884 -0.10110056 0.07704671 -0.15992257 0.05519657
00000000: 212b a0bd 92d3 803d 8fb6 8a3e f1f9 8cbe
00000010: a7c5 ffbc 138c c7be cb54 a2be 0261 31be
00000020: a4a8 7dbe a388 9fbe 2ef6 0c3e ebb5 19be
00000030: 4b59 413c d530 b2bd 77b1 16be a42f 463e
00000040: 36b8 8f3d 1a22 6d3e 0d77 313e d2be fabd
00000050: f1ae 40be 80d6 3f3e a52a 30be ffd7 afbd
00000060: fe4c a6bd 3835 8cbd 3b96 33be fc8a 55be
00000070: e4ae 1fba 9d3b b0be a9d7 5d3e 102b 7abd
00000080: 3e75 4bbe 64cf a33d 9f69 873d 1005 843d
00000090: 237d 7abe e57b dc3d e916 0cbe 7338 e7be
000000a0: 00d8 3ebd 3e15 173e ad34 4ebd 72ee ddbd
000000b0: 8d1b e13d b5dc ba3e 8bdd babe 1c2e 94bd
000000c0: d74c 84bd d0fb 6fbe 3206 c9be d977 9bbd
000000d0: a728 51be 2fc5 b93c 1b97 903c bb32 c33d
000000e0: 62a4 0ebe 05e0 fbbd f314 a2bd 7481 b93d
000000f0: 7081 713d 9c51 1d3e 3dad 8cbe fed2 6dbe
00000100: 7947 52be f070 8c3e 625a 393e a752 eabd
00000110: 4e0f 0cbe b6fc 043e 7265 95be 613a cf3d
00000120: 5225 37be b0f5 153b 0621 ffbd 5bb7 dabb
00000130: d653 82be ed16 8dbc e564 9d3d aff8 a0bd
00000140: 39a6 3c3e f245 3abe 09f9 bfbe 271c 923d
00000150: 81a4 073e 37a9 d4bd 9b6d 41be 51a7 8d3e
00000160: d505 29bd 54f0 19be 57aa 39be 97ce 703d
00000170: 187a 67bd 3b23 4abe 3f06 97bd 0a68 f8bc
00000180: 0ed7 02be 86bc 4b3e 848e a8bc d7fe 99be
00000190: 6b61 febe 713c 69bd 2722 a13d 8348 433d
000001a0: 161b 29be 2844 8d3d 56a6 2ebd 715c d73d
000001b0: 08f5 9fbe 5e73 39bc 435d 783e 46b4 37be
000001c0: 2c56 64bd 3ced 43bd 6cba a1bc 7558 e4bc
000001d0: f5be cabd 8c32 fabd 0a83 413c 7d57 8dbe
000001e0: 3624 2b3e 09bf d8be 0dc9 8a3e 9685 ecbb
000001f0: cc96 e63d 4766 cdbd 1242 92be 95c8 673d
00000200: 9cf2 b5be b723 273e 27ef a73e a0aa 4a3e
00000210: 4b55 833e ece7 81be 9613 113e 110e 3ebd
00000220: 7c1c 613e 7af8 58be 71b1 053b 693a 863d
00000230: eda3 fd3d 6679 903b c76e 93be 22c1 26be
00000240: 166d fa3b 9621 28be e7cc 83bc a642 92bc
00000250: 686e ecbd 3efe 5ebe 7acc 743b c07a d7bd
00000260: 48ac 763b 29c9 0cbe e735 d8bd c7a3 0abe
00000270: b7fa ef3c eb98 0fbe 4f51 013e 4754 61be
00000280: a9ac 9b3e d9ce 743e e60f 18bd 1004 af3d
00000290: f0ea 943d a137 74be 206a 003e 4ea3 c93d
000002a0: 39b0 1fbe b030 ca3d 0ea3 76be 7d72 e6bb
000002b0: 54f9 a13d a8ad 15be bb19 95be 84a4 353d
000002c0: fdd1 6fbe 0549 38bd 52b8 183c b133 0cbe
000002d0: 46db 743e 191e 4f3e 42e0 043e 0f9e cdbd
000002e0: 5e5f a43d e69b 3e3e 105a 88be 988e cbbb
000002f0: e219 ccbd bd6a 45be 041e a7bd afa7 7e3d
00000300: a4a9 743e 5d23 583d 4cab 84be cc44 00be
00000310: 20f8 6dbe 1c16 04be e8e7 69be 7e0a a5bc
00000320: 9fc1 033e 3442 81bc d949 6dbe 7461 c73d
00000330: 9040 393e 2cac 1abd bade 68be 024f 27bd
00000340: 70b0 6cbb 838b b5bd 59b1 0b3e a389 d0be
00000350: 0813 71be 4743 a4be b63e 2b3e 830a 9fbd
00000360: 69b3 903e 10bd 6fbe 3a65 7c3d 2521 f63b
00000370: e268 973d b326 59be a52c 793e ff34 37be
00000380: 9b0b 31be 9b5e c13c f417 6b3b a61e 513c
00000390: 3a07 af3e 0c4e 78be eda3 503e 3946 a83d
000003a0: b556 c1bd bbb3 68be e185 6ebe 124f 51be
000003b0: 93c4 6bbd db15 98bd e4c2 75bd 731f 2dbb
000003c0: 17ad 21bd f211 0dbe 0863 503d 7b1f 2d3e
000003d0: a68b babe 7941 d3bd c1f9 72be 42e3 bbbe
000003e0: fd15 97bd bf59 1d3e 711f a93c 57df 31bd
000003f0: cf0d cfbd aaca 9d3d bec2 23be cc15 623d

linear2.weight f4 [3, 256]
-0.02300065 0.14597382 0.0069478713 -0.022486739 -0.051867794 -0.019722728 0.028736278 0.03753426
-0.018653758 0.0043011717 -0.087657385 -0.028121918 -0.029379336 -0.18703654 -0.07843602 0.31530312
0.08675184 -0.058857754 -0.10711937 -0.011090189 0.029270705 0.0817512 0.056108646 0.004397861
-0.039528966 -0.16407132 -0.025634902 -0.021627631 -0.025629168 -0.17923519 0.04126353 -0.033262756
0.023681276 -0.27897033 -0.002669376 0.27724946 0.011463576 0.17773843 -0.053412504 0.06418068
-0.09111777 0.147915 -0.080449894 0.190565 0.10566804 0.1295916 -0.025375148 -0.19452442
-0.019286944 -0.00870235 -1.9796178e-05 0.10085846 0.041499972 -0.31843105 0.22206725 -0.008161319
0.004059702 -0.027266156 -0.06442322 -0.029081456 0.082666814 0.03007034 0.06037046 0.12532179
-0.034260698 -0.2677211 -0.12208672 0.012304132 0.07688515 -0.1452123 -0.030129425 0.015790392
-0.025885994 -0.052164305 -0.11126669 0.25143278 0.038889185 0.14077665 -0.06370339 -0.091149054
0.018672088 0.025540663 -0.022918582 -0.027241012 0.028315423 -9.920518e-05 -0.097371854 0.091092624
0.39146137 -0.09977288 -0.05068572 -0.09722449 0.058944616 0.008272007 0.029073413 -0.0045263637
-0.009565335 0.10800555 -0.060519062 -0.007283465 -0.020968089 -0.013563935 0.09488698 -0.009228088
-0.005397593 -0.029455265 -0.0892111 -0.049912885 0.13323691 -0.14806825 0.059976317 0.015299735
-0.09131482 -0.029277332 0.022032036 -0.020491432 -0.098087735 -0.021647673 -0.21313342 -0.10365707
0.25211823 -0.0011978721 0.11458042 0.21083407 0.09494912 -0.022000177 -0.05632299 -0.07508032
0.03389078 0.022572365 0.032049052 -0.16091724 0.08003504 0.01593878 -0.10600833 0.035074666
0.019027267 -0.03460915 -0.04690866 0.034896716 0.0007199857 0.11724702 -0.031632043 -0.03239742
-0.009309697 0.15690593 0.075601086 -0.031620562 -0.08845486 -0.0475146 0.034405496 0.00527614
0.19276728 -0.11820543 -0.16389556 -0.15334412 -0.0020991408 0.038252633 0.11660734 0.0841191
-0.010586774 0.18118243 0.0038797027 0.0350792 0.032183696 -0.054957826 0.057629343 -0.19566898
-0.023931518 -0.0027252506 -0.046102207 -0.075194046 0.030772014 0.01349356 0.19344042 -0.020943834
-0.032498013 0.07644677 -0.1013776 0.022272356 -0.012453153 0.062089667 -0.39215326 -0.140279
-0.11314809 -0.0077017313 0.065105066 -0.02896191 -0.17664084 -0.21490827 0.0013639667 0.08975289
-0.09785681 -0.0067388504 0.043374367 0.13253568 -0.03854192 0.18463887 -0.16652295 -0.15064448
-0.14856043 -0.022267468 0.022618774 0.121189766 -0.06775478 -0.09014675 0.017001502 0.028831638
-0.11983985 -0.02962495 0.105369404 0.03874854 0.009382606 -0.08456271 -0.063493684 0.016857162
0.21750231 0.023352556 -0.05268157 0.07875094 0.054542355 -0.054634783 -0.1604388 -0.08807538
-0.054140132 -0.063475296 -0.026509782 0.21397908 -0.037089255 -0.07180163 -0.32193494 0.026822815
0.12128892 -0.01207413 0.01776623 -0.11017402 -0.03028641 -0.028250562 -0.04143907 0.073216334
-0.0400437 0.026166372 -0.10050111 0.023276072 -0.0031206398 -0.0035340593 -0.1688289 0.02623816
-0.17771402 0.059042085 -0.065195814 0.133151 -0.0069304593 0.13691652 0.2316508 -0.08529141
00000000: dc6b bcbc 297a 153e f8aa e33b 1c36 b8bc
00000010: 5373 54bd 8f91 a1bc 5868 eb3c 86bd 193d
00000020: c4cf 98bc d8f0 8c3b b785 b3bd f05f e6bc
00000030: efac f0bc 8286 3fbe 10a3 a0bd 696f a13e
00000040: f3aa b13d d414 71bd 6661 dbbd a0b3 35bc
00000050: 1ec9 ef3c 2c6d a73d 2ed2 653d ef1b 903b
00000060: 20e9 21bd 5002 28be 4900 d2bc 6e2c b1bc
00000070: 43f4 d1bc 6e89 37be f203 293d 873e 08bd
00000080: 3cff c13c 33d5 8ebe b3f0 2ebb a4f3 8d3e
00000090: b9d1 3b3c 1001 363e 12c7 5abd 2971 833d
000000a0: f49b babd 0877 173e eac2 a4bd 7923 433e
000000b0: 7c68 d83d a9b3 043e 8bdf cfbc 6931 47be
000000c0: a7ff 9dbc 4d94 0ebc f80f a6b7 e18e ce3d
000000d0: e0fb 293d 6509 a3be 9965 633e 0eb7 05bc
000000e0: 4007 853b 465d dfbc 52f0 83bd 3c3c eebc
000000f0: 384d a93d 1356 f63c 0447 773d 5b54 003e
00000100: f254 0cbd bd12 89be 9a08 fabd 4597 493c
00000110: f675 9d3d 88b2 14be fcd1 f6bc da5a 813c
00000120: dd0e d4bc 3daa 55bd cadf e3bd ccbb 803e
00000130: 444a 1f3d c127 103e ec76 82bd 5bac babd
00000140: 35f6 983c a73a d13c c0bf bbbc 8b28 dfbc
00000150: bff5 e73c 600c d0b8 e56a c7bd c58e ba3d
00000160: a06d c83e b955 ccbd d49b 4fbd a21d c7bd
00000170: e96f 713d 5087 073c 5e2b ee3c e451 94bb
00000180: ecb7 1cbc 0432 dd3d d6e2 77bd 22aa eebb
00000190: 45c5 abbc 443b 5ebc 1b54 c23d 6831 17bc
000001a0: 4bde b0bb 2b4c f1bc 4fb4 b6bd 7471 4cbd
000001b0: 426f 083e 349f 17be baa9 753d bdab 7a3c
000001c0: 4403 bbbd 04d7 efbc 877c b43c a6dd a7bc
000001d0: 39e2 c8bd 7656 b1bc a63f 5abe 284a d4bd
000001e0: a415 813e eb01 9dba 24a9 ea3d e3e4 573e
000001f0: af74 c23d b739 b4bc f0b2 66bd b6c3 99bd
00000200: 0fd1 0a3d aee9 b83c de45 033d 7dc7 24be
00000210: 69e9 a33d 0b92 823c e51a d9bd 74aa 0f3d
00000220: 12df 9b3c 53c2 0dbd 4c23 40bd dcef 0e3d
00000230: 6cbd 3c3a 351f f03d 9a90 01bd 28b3 04bd
00000240: b387 18bc f3ab 203e bed4 9a3d 9084 01bd
00000250: d227 b5bd ab9e 42bd c7ec 0c3d 78e3 ac3b
00000260: c964 453e b015 f2bd 3dd4 27be 3e06 1dbe
00000270: bd91 09bb cbae 1c3d d4cf ee3d a246 ac3d
00000280: 2674 2dbc e387 393e 9c42 7e3b 35af 0f3d
00000290: 0dd3 033d 751b 61bd bf0c 6c3d 735d 48be
000002a0: 080c c4bc 1e9a 32bb abd5 3cbd 56ff 99bd
000002b0: 9715 fc3c 1814 5d3c 3f15 463e 6792 abbc
000002c0: a31c 05bd 2090 9c3d 0f9f cfbd 8474 b63c
000002d0: 4f08 4cbc bc51 7e3d 50c8 c8be 4ca5 0fbe
000002e0: 30ba e7bd ce5e fcbb ce55 853d 8741 edbc
000002f0: 56e1 34be ea10 5cbe 21c7 b23a 5dd0 b73d
00000300: 2769 c8bd 93d1 dcbb 52a9 313d 6fb7 073e
00000310: 22de 1dbd f911 3d3e fe84 2abe 8c42 1abe
00000320: 3a20 18be 446a b6bc 024b b93c 5732 f83d
00000330: 05c3 8abd dc9e b8bd bc46 8b3c 5430 ec3c
00000340: 986e f5bd 06b0 f2bc eacb d73d cab6 1e3d
00000350: 80b9 193c 372f adbd fa08 82bd 0818 8a3c
00000360: edb8 5e3e dc4d bf3c a1c8 57bd 2c48 a13d
00000370: ce67 5f3d b9c8 5fbd 124a 24be dd60 b4bd
00000380: 0bc2 5dbd 56ff 81bd 0b2b d9bc 551d 5b3e
00000390: e7ea 17bd bc0c 93bd a8d4 a4be 85bb db3c
000003a0: 5366 f83d 92d2 45bc 7c8a 913c eba2 e1bd
000003b0: 351b f8bc b96d e7bc 04bc 29bd 72f2 953d
000003c0: dd04 24bd dc5a d63c 87d3 cdbd 76ad be3c
000003d0: a683 4cbb ad9b 67bb 7ce1 2cbe 69f1 d63c
000003e0: aafa 35be 1dd6 713d 6285 85bd bc58 083e
000003f0: e818 e3bb d833 0c3e de35 6d3e 43ad aebd

linear2.bias f4 [3]
-0.015964566 -0.15424986 -0.10547296
00000000: 1fc8 82bc adf3 1dbe 3502 d8bd
